date: 2018-03-25 01:36:46.912018
---------------------
_________________________________________________________________
Layer (type)                 Output Shape              Param #   
=================================================================
dense_1 (Dense)              (None, 512)               9332736   
_________________________________________________________________
activation_1 (Activation)    (None, 512)               0         
_________________________________________________________________
dropout_1 (Dropout)          (None, 512)               0         
_________________________________________________________________
dense_2 (Dense)              (None, 5)                 2565      
_________________________________________________________________
activation_2 (Activation)    (None, 5)                 0         
=================================================================
Total params: 9,335,301
Trainable params: 9,335,301
Non-trainable params: 0
_________________________________________________________________
accuracy: 1.0
---------------------
date: 2018-03-25 01:37:18.880653
---------------------
_________________________________________________________________
Layer (type)                 Output Shape              Param #   
=================================================================
dense_1 (Dense)              (None, 512)               9332736   
_________________________________________________________________
activation_1 (Activation)    (None, 512)               0         
_________________________________________________________________
dropout_1 (Dropout)          (None, 512)               0         
_________________________________________________________________
dense_2 (Dense)              (None, 5)                 2565      
_________________________________________________________________
activation_2 (Activation)    (None, 5)                 0         
=================================================================
Total params: 9,335,301
Trainable params: 9,335,301
Non-trainable params: 0
_________________________________________________________________
accuracy: 1.0
---------------------


date: 2018-03-25 01:37:48.092569
---------------------
_________________________________________________________________
Layer (type)                 Output Shape              Param #   
=================================================================
dense_1 (Dense)              (None, 512)               9332736   
_________________________________________________________________
activation_1 (Activation)    (None, 512)               0         
_________________________________________________________________
dropout_1 (Dropout)          (None, 512)               0         
_________________________________________________________________
dense_2 (Dense)              (None, 5)                 2565      
_________________________________________________________________
activation_2 (Activation)    (None, 5)                 0         
=================================================================
Total params: 9,335,301
Trainable params: 9,335,301
Non-trainable params: 0
_________________________________________________________________
accuracy: 0.5
---------------------


---------------------
Model info
date: 2018-03-25 01:40:29.473622
_________________________________________________________________
Layer (type)                 Output Shape              Param #   
=================================================================
dense_1 (Dense)              (None, 512)               9332736   
_________________________________________________________________
activation_1 (Activation)    (None, 512)               0         
_________________________________________________________________
dropout_1 (Dropout)          (None, 512)               0         
_________________________________________________________________
dense_2 (Dense)              (None, 5)                 2565      
_________________________________________________________________
activation_2 (Activation)    (None, 5)                 0         
=================================================================
Total params: 9,335,301
Trainable params: 9,335,301
Non-trainable params: 0
_________________________________________________________________
accuracy: 0.5
---------------------
